models/best_model.pt (torch, 670818 bytes, 68 tensors)

layers.0.weight f4 [128, 7]
0	0x3eb5bd33	0.3549591
1	0x3ea89967	0.32929537
2	0xbd39d271	-0.04536671
3	0x3e99cc7a	0.30038816
4	0xbdcb3703	-0.09922602
5	0x3d5f6870	0.05454296
6	0xbe113626	-0.14180812
7	0x3e845e47	0.25853178
8	0x3ea558aa	0.32294208
9	0xbe89f21f	-0.26942536
10	0x3eabd4c9	0.3356078
11	0x3db5528c	0.08853635
12	0x3e886c23	0.26645002
13	0x3d160442	0.036625154
14	0x3e6d4440	0.23170567
15	0xbd6e14a8	-0.058125168
16	0x3ea0897a	0.31354886
17	0x3d74644c	0.059665963
18	0xbe204b3b	-0.15653698
19	0x3d8e012b	0.069338165
20	0xbe2d0a17	-0.1689838
21	0xbd44dada	-0.048060276
22	0xbe024584	-0.1272183
23	0x3e7639f2	0.24045542
24	0xbec1f6cd	-0.37883607
25	0xbe2f3f33	-0.17113952
26	0xbdbbbd43	-0.09166958
27	0xbe74944d	-0.23884697
28	0x3ce0f679	0.027461277
29	0xbed7e713	-0.42168483
30	0x3ebdfac2	0.37105376
31	0xbeb53df1	-0.3539882
32	0x3e8d95d9	0.27653387
33	0x3cf8247f	0.03029084
34	0xbe02b2cd	-0.1276352
35	0x3e979abe	0.29610246
36	0x3d6584c9	0.056034837
37	0x3eafda77	0.34346363
38	0x3d39f5c5	0.0454004
39	0xbe12f791	-0.14352252
40	0x3db75b30	0.089529395
41	0xbdb8538a	-0.09000309
42	0x3e316a97	0.17325817
43	0x3ea84fe0	0.3287344
44	0x3e7fcd7d	0.24980731
45	0xbe35293c	-0.17691511
46	0x3e588649	0.21144976
47	0x3d7c6bbf	0.061626192
48	0x3e45f06a	0.19329992
49	0xbe70b2cc	-0.23505706
50	0xbec3213a	-0.38111287
51	0xbe4defc2	-0.20110992
52	0xbe9363f7	-0.28787205
53	0x3ea17905	0.31537643
54	0x3dad2306	0.08453946
55	0x3e0abf6a	0.13549581
56	0x3de35e11	0.11101926
57	0xbc675171	-0.014118538
58	0x3e89cfc8	0.26916337
59	0xbeb577d0	-0.35442972
60	0x3cdc4f14	0.026893176
61	0xbe6a7f10	-0.22900033
62	0x3e08a279	0.13343228
63	0xbe035abf	-0.12827586
64	0x3e2f84c4	0.1714049
65	0xbdc7166e	-0.09721075
66	0x3ea2f9bb	0.31831154
67	0xbe54ed30	-0.20793605
68	0xbe71d3c2	-0.23615935
69	0xbe56d456	-0.20979437
70	0x3ed45feb	0.4147943
71	0x3e1c1e07	0.1524583
72	0x3ed91947	0.42402098
73	0xbe7bd7b3	-0.24594001
74	0xbeb4131f	-0.35170838
75	0xbe92054b	-0.28519663
76	0xbe6b2458	-0.22963083
77	0x3e2a5a5a	0.16636029
78	0x3de96dba	0.11397882
79	0x3e966fb6	0.29382104
80	0xbe534842	-0.20633033
81	0xbe91969c	-0.28435218
82	0x3e5b1e56	0.21398291
83	0xbe2e94b5	-0.17048915
84	0x3e889f00	0.26683807
85	0xbdc6fc82	-0.09716131
86	0x3e60cc7a	0.21953002
87	0xbe7fd0a6	-0.24981937
88	0xbe4c2fe7	-0.19940148
89	0x3dfa757a	0.12229438
90	0x3d8e997a	0.06962867
91	0xbdafb965	-0.08580283
92	0x3e43c996	0.19119868
93	0x3e8351fd	0.2564849
94	0xbedd8f45	-0.43273368
95	0xbe463891	-0.19357516
96	0x3eb0f7a8	0.34563947
97	0xbde04e65	-0.109524526
98	0xbe43814d	-0.19092293
99	0xbec2ebd6	-0.38070554
100	0xbe86b311	-0.26308492
101	0x3d9a0370	0.07520187
102	0xbdba5fd2	-0.091003075
103	0xbe640f63	-0.22271495
104	0xbbd03b81	-0.0063547497
105	0xbe844e2b	-0.25840887
106	0xbea7381d	-0.3266
107	0xbe70998a	-0.2349607
108	0xbecfc6cf	-0.40581366
109	0xbe7003e3	-0.23438983
110	0x3eb0f7cd	0.34564057
111	0x3d889f04	0.06670955
112	0x3dea81f8	0.11450571
113	0xbedb60c0	-0.42847252
114	0xbe73fef7	-0.2382773
115	0xbe009eef	-0.12560628
116	0x3d162440	0.036655664
117	0xbe9a189f	-0.3009691
118	0xbe3d8db7	-0.18511091
119	0xbe75ad52	-0.23991898
120	0x3ba59af7	0.0050538736
121	0xbe0cc092	-0.13745335
122	0xbd552dd3	-0.052045655
123	0xbe9646c7	-0.29350874
124	0xbe832d3b	-0.25620446
125	0xbe4cb5e4	-0.19991261
126	0xbe0c0a96	-0.13675913
127	0xbeaf74ea	-0.34268886
128	0x3e9fb4b5	0.31192556
129	0xbdc93ea5	-0.098264016
130	0x3ea9dfac	0.3317846
131	0x3def5f25	0.11688069
132	0xbe9cc8ba	-0.30621892
133	0x3e922ddb	0.2855061
134	0xbde61fe5	-0.11236552
135	0xbdf34052	-0.118775025
136	0xbebfe954	-0.37482703
137	0xbeb7beb8	-0.35887694
138	0x3dde7c8a	0.10863598
139	0xbd85880d	-0.0652009
140	0x3e07f682	0.13277629
141	0xbe90a05f	-0.28247353
142	0x3e8ef930	0.2792449
143	0xbeee990e	-0.46601146
144	0xbd4a1dbd	-0.049344767
145	0x3d836132	0.06415023
146	0x3e210cc5	0.15727527
147	0x3ea6320d	0.3246006
148	0x3eab2cce	0.3343262
149	0xbe973b05	-0.29537216
150	0x3dbfc13d	0.09363029
151	0xbe07af05	-0.13250358
152	0xbd482f08	-0.048872977
153	0xbe9d2f1d	-0.30700007
154	0x3eb11bc8	0.34591508
155	0xbe8e4586	-0.27787417
156	0x3e376c38	0.17912376
157	0x3e27356b	0.16328971
158	0x3e2e27b5	0.17007335
159	0xbe50fcf1	-0.2040899
160	0x3ea39d3a	0.31955892
161	0x3e02c1b5	0.12769206
162	0x3d874d16	0.066065
163	0xbeaa4263	-0.33253774
164	0x3e1eb77d	0.15499683
165	0xbd1a836a	-0.037722982
166	0xbe45f04c	-0.19329947
167	0x3ea4607b	0.3210486
168	0x3dd6a573	0.10480776
169	0xbe07a42a	-0.13246217
170	0xbe4a0b77	-0.19730936
171	0xbcf1cb13	-0.029515779
172	0x3e5f0081	0.21777536
173	0xbdc1fa6c	-0.09471592
174	0xbe82665b	-0.25468716
175	0xbde52dc7	-0.11190372
176	0xbe9421e9	-0.2893212
177	0x3e205890	0.15658784
178	0x3e8f48d8	0.27985263
179	0xbeb8e4c5	-0.36112037
180	0x3da7d64c	0.08195171
181	0x3e5840d0	0.21118474
182	0x3db6e133	0.08929672
183	0xbe19d44d	-0.15022393
184	0x3e5bcd83	0.21465115
185	0x3e29f82c	0.16598576
186	0x3e1337d0	0.1437676
187	0xbdcaeca3	-0.09908416
188	0xbd8b94c3	-0.068154834
189	0x3d6bd9e3	0.05758084
190	0xbd835f51	-0.064146645
191	0xbdccf2bf	-0.10007238
192	0x3e7ea306	0.24866876
193	0x3eaa2303	0.33229837
194	0xbd07bd6b	-0.033139627
195	0xbd6f8004	-0.058471695
196	0xbc9c119a	-0.019051362
197	0xbcb71355	-0.022348085
198	0x3dad8c77	0.08474057
199	0x3dab1b74	0.08354846
200	0xbeac0cc7	-0.33603498
201	0xbdd2ec4b	-0.102989756
202	0x3eb1a5b6	0.3469674
203	0x3e004ff9	0.12530507
204	0xbc7b7606	-0.015347963
205	0xbe6088e6	-0.21927223
206	0xbec2997c	-0.38007724
207	0xbe9d02b0	-0.30666113
208	0xbe02f1aa	-0.127875
209	0x3df85842	0.12126209
210	0x3e847ec8	0.25877976
211	0x3e2e3989	0.17014135
212	0xbea3ad94	-0.31968367
213	0xbeacc649	-0.3374503
214	0xbd9e9a11	-0.077442296
215	0x3eb256f5	0.34831968
216	0x3d6c986b	0.057762545
217	0xbdc5a166	-0.09649925
218	0x3e1366af	0.1439464
219	0xbe0210c7	-0.12701713
220	0xbe68684e	-0.22696039
221	0x3e9fbaae	0.31197113
222	0xbe2c6fef	-0.16839574
223	0xbdd6c22f	-0.10486256
224	0xbebe9940	-0.37226295
225	0x3e82971c	0.25505912
226	0x3e9229eb	0.28547606
227	0x3e121a93	0.1426795
228	0xbe7ea60d	-0.24868031
229	0xbec2f2c4	-0.3807584
230	0xbead4855	-0.33844247
231	0x3eb2ec0b	0.34945711
232	0x3e24dab1	0.16099049
233	0x3eb10313	0.34572658
234	0x3e4b354f	0.19844554
235	0x3dd26cfc	0.10274693
236	0xbaf02dea	-0.001832423
237	0xbe853f6c	-0.2602495
238	0xbeba799a	-0.364209
239	0xbec18087	-0.3779337
240	0x3e273903	0.16330342
241	0xbe4f43a1	-0.20240642
242	0xbd7c10cd	-0.06153946
243	0xbe3442fd	-0.17603679
244	0xbd61c27b	-0.05511711
245	0xbe99db18	-0.30049968
246	0xbe955d33	-0.29172668
247	0x3da44e3e	0.08022736
248	0xbe01cf8e	-0.12676832
249	0x3e46c114	0.19409591
250	0xbdee3f97	-0.116332226
251	0xbe896c29	-0.26840332
252	0xbdb20602	-0.08692552
253	0xbe56ea19	-0.20987739
254	0xbdeb5f01	-0.1149273
255	0xbee89136	-0.45423287

layers.0.bias f4 [128]
0	0xbdf18209	-0.1179238
1	0xbdfef80a	-0.124496534
2	0xbdcebc13	-0.10094466
3	0xbe1c36c6	-0.1525527
4	0x3e90e99c	0.2830323
5	0x3e22dacd	0.15903778
6	0x3ea74ec6	0.32677287
7	0xbc3d7a99	-0.011564874
8	0x3d95d281	0.07315541
9	0x3dfd8ab9	0.12379975
10	0xbea32dbf	-0.3187084
11	0x3cd7f735	0.026362995
12	0x3cb6cf08	0.022315517
13	0xbe34ab90	-0.17643571
14	0xbeb63b01	-0.3559189
15	0x3e93da6c	0.2887758
16	0x3e8b0787	0.2715418
17	0x3dfecfeb	0.12442001
18	0x3ec26d0e	0.37973827
19	0xbe4ed6dd	-0.20199151
20	0xbde54c4c	-0.11196193
21	0x3e1dfd80	0.15428734
22	0xbd850c15	-0.06496445
23	0xbde1616d	-0.110049106
24	0xbeab11a3	-0.33411893
25	0x3de58700	0.1120739
26	0xbe5c9719	-0.21542014
27	0x3c9e11fa	0.019295681
28	0x3eca0096	0.39453572
29	0xbe102ac8	-0.1407882
30	0xbe168a48	-0.14701188
31	0x3e67135c	0.22565979
32	0xbe0d5638	-0.13802421
33	0xbcb179ea	-0.021664578
34	0x3ea436f8	0.32073188
35	0xbe141fc8	-0.14465249
36	0xbe98db2e	-0.2985472
37	0xbe5fae4e	-0.21843836
38	0xbe03479c	-0.12820286
39	0xbe1e1946	-0.15439329
40	0xbe60cf67	-0.21954118
41	0x3dd44f28	0.1036666
42	0x3d3d60dd	0.046234954
43	0xbe0db9aa	-0.13840356
44	0xbea40609	-0.32035854
45	0xbdca943e	-0.09891556
46	0xbe180eb8	-0.14849365
47	0xbe2179c4	-0.15769106
48	0xbeae60c0	-0.3405819
49	0x3e087b96	0.13328394
50	0xbe997ee6	-0.29979628
51	0xbea71209	-0.32630947
52	0xbe93ae8a	-0.288441
53	0x3e114eee	0.14190266
54	0xbe66c969	-0.2253777
55	0xbe38d03f	-0.1804819
56	0x3e98bff5	0.29833952
57	0x3dddce1d	0.108303286
58	0x3e4ef5b8	0.20210922
59	0xbeb49414	-0.35269225
60	0xbe85f280	-0.26161575
61	0xbe21fe69	-0.15819706
62	0x3eacccda	0.3375004
63	0x3d571982	0.05251456
64	0xbec4245f	-0.38309
65	0xbaff3cfa	-0.0019473128
66	0xbea0bf88	-0.31396127
67	0xbdb7f4be	-0.08982228
68	0xbded12d5	-0.115758575
69	0x3e91c2df	0.28468987
70	0x3e1a8ef2	0.15093592
71	0xbd836b17	-0.0641691
72	0x3c836aaf	0.016042082
73	0xbe101b3b	-0.14072888
74	0x3e218f45	0.15777309
75	0x3e03ed0f	0.128834
76	0x3dd89d0a	0.10576828
77	0xbddd493c	-0.10804984
78	0x3ea3db82	0.3200341
79	0xbd338133	-0.043824386
80	0xbe2a021a	-0.16602364
81	0x3e46c5e5	0.19411428
82	0x3e9270de	0.28601736
83	0x3eb80524	0.35941422
84	0x3e368caa	0.17827097
85	0xbe06d03e	-0.13165376
86	0x3e50d8a3	0.2039514
87	0x3e8fe62b	0.28105292
88	0xbec67506	-0.38761157
89	0xbe3e71b2	-0.18598059
90	0xbe990ff8	-0.29894996
91	0x3c6b31a6	0.014355099
92	0x3e0acba3	0.13554244
93	0xbdcaed50	-0.09908545
94	0xbcbaac99	-0.02278738
95	0x3e35a00c	0.17736834
96	0xbdaa4cb2	-0.0831541
97	0xbeb28264	-0.34865105
98	0x3e9909f8	0.29890418
99	0xbe356f30	-0.17718196
100	0xbd73ce01	-0.059522633
101	0x3cf878bc	0.030331008
102	0xbd81171a	-0.063032344
103	0xbebdeee3	-0.3709632
104	0x3e14d6f7	0.14535128
105	0xbe0ce8ca	-0.13760677
106	0xbe3efd75	-0.18651374
107	0x3dab3ae3	0.08360841
108	0xbe23e43b	-0.16005032
109	0xbe545355	-0.20734914
110	0xbdbe1e5e	-0.09283136
111	0xbe0541cc	-0.13013381
112	0xbe839c92	-0.2570539
113	0xbe16b474	-0.14717275
114	0x3dc9e51d	0.09858153
115	0xbea16ac0	-0.31526756
116	0xbe431c0d	-0.1905367
117	0xbcf3f6da	-0.029780794
118	0x3d3d0278	0.046144933
119	0x3e0d80cc	0.13818663
120	0xbebefc26	-0.3730175
121	0x3e1aa6c6	0.15102682
122	0x3e33642b	0.1751868
123	0x3e5b800e	0.21435568
124	0xbea8ca89	-0.32967022
125	0xbe00d35e	-0.1258063
126	0xbeb283da	-0.3486622
127	0xbe8e3756	-0.27776593

layers.2.weight f4 [128]
0	0x3f80d9d2	1.0066473
1	0x3f824b70	1.0179272
2	0x3f7aea6e	0.9801396
3	0x3f7fd97a	0.9994122
4	0x3f816fd1	1.0112249
5	0x3f804ef8	1.0024099
6	0x3f837743	1.0270771
7	0x3f8200c5	1.0156485
8	0x3f8347a6	1.025624
9	0x3f7b862c	0.98251605
10	0x3f729e3f	0.94772714
11	0x3f7b65be	0.9820212
12	0x3f786369	0.9702669
13	0x3f8269fd	1.0188595
14	0x3f811766	1.0085266
15	0x3f869d00	1.0516663
16	0x3f8327f3	1.0246567
17	0x3f82b896	1.0212581
18	0x3f826943	1.0188373
19	0x3f8076ff	1.0036315
20	0x3f837278	1.0269308
21	0x3f84bda7	1.0370377
22	0x3f82c69c	1.0216861
23	0x3f7a0d80	0.9767685
24	0x3f7e0439	0.99225193
25	0x3f80e80a	1.0070813
26	0x3f7f3830	0.9969511
27	0x3f7f3009	0.9968267
28	0x3f78377b	0.96959656
29	0x3f7c5648	0.98569155
30	0x3f80bc74	1.0057511
31	0x3f814547	1.0099267
32	0x3f7f21ab	0.9966075
33	0x3f853c7a	1.0409081
34	0x3f8582dd	1.0430561
35	0x3f801343	1.0005878
36	0x3f7ed3ac	0.99541736
37	0x3f8122cc	1.0088744
38	0x3f80d1aa	1.0063984
39	0x3f82915b	1.0200609
40	0x3f801e9b	1.000934
41	0x3f787c3e	0.9706458
42	0x3f81f324	1.0152326
43	0x3f8399aa	1.028127
44	0x3f845e70	1.034132
45	0x3f7a7f3d	0.978504
46	0x3f82475e	1.017803
47	0x3f7c1ba8	0.984797
48	0x3f7b048e	0.98053825
49	0x3f812aa0	1.0091133
50	0x3f77a125	0.9673026
51	0x3f7b405c	0.9814508
52	0x3f7f1fba	0.99657786
53	0x3f7e769a	0.9939972
54	0x3f80ed18	1.0072355
55	0x3f833a5b	1.0252184
56	0x3f80710b	1.0034498
57	0x3f806de7	1.003354
58	0x3f8320b7	1.0244359
59	0x3f802297	1.0010556
60	0x3f80e6e7	1.0070466
61	0x3f7976fb	0.97447175
62	0x3f7e7cc5	0.99409133
63	0x3f822ea1	1.017048
64	0x3f805f9e	1.002918
65	0x3f7cbd49	0.98726326
66	0x3f80e892	1.0070975
67	0x3f820616	1.0158107
68	0x3f7e99cf	0.99453443
69	0x3f7b69ac	0.9820812
70	0x3f794568	0.9737153
71	0x3f7fc556	0.99910486
72	0x3f7eb861	0.9950009
73	0x3f80e384	1.0069432
74	0x3f7c83ef	0.98638815
75	0x3f7f004a	0.99609816
76	0x3f8075fc	1.0036006
77	0x3f8386a3	1.0275463
78	0x3f806b35	1.0032717
79	0x3f7ad21d	0.9797686
80	0x3f77bafe	0.967697
81	0x3f822779	1.0168296
82	0x3f80943b	1.0045236
83	0x3f80da3a	1.0066597
84	0x3f764580	0.961998
85	0x3f7cf1ed	0.9880665
86	0x3f8285ce	1.0197084
87	0x3f832d25	1.0248152
88	0x3f83ad97	1.028735
89	0x3f8570d2	1.0425055
90	0x3f8182ac	1.0118003
91	0x3f83bb95	1.029162
92	0x3f7fbb0b	0.9989478
93	0x3f802f25	1.0014387
94	0x3f7dadea	0.99093497
95	0x3f808761	1.0041314
96	0x3f8251d2	1.018122
97	0x3f7eb078	0.9948802
98	0x3f7dd254	0.9914906
99	0x3f821793	1.0163444
100	0x3f84365d	1.032909
101	0x3f8082cd	1.0039917
102	0x3f8231a7	1.0171403
103	0x3f80f612	1.0075095
104	0x3f81a841	1.0129472
105	0x3f831cbe	1.0243146
106	0x3f81fbb4	1.0154939
107	0x3f7e6d9b	0.99385995
108	0x3f7921cc	0.97317195
109	0x3f7f9322	0.9983388
110	0x3f7479eb	0.9549853
111	0x3f775b6d	0.9662388
112	0x3f8265ff	1.0187377
113	0x3f85c99b	1.045215
114	0x3f7ff589	0.9998403
115	0x3f806903	1.0032047
116	0x3f7ca996	0.9869627
117	0x3f80e3ec	1.0069556
118	0x3f7a4ca9	0.97773224
119	0x3f84ec14	1.0384545
120	0x3f83cf44	1.0297627
121	0x3f80b56e	1.0055368
122	0x3f8572a6	1.0425613
123	0x3f80087b	1.0002588
124	0x3f7defa1	0.9919377
125	0x3f7c18b0	0.9847517
126	0x3f802b32	1.0013182
127	0x3f7dcb13	0.9913799

layers.2.bias f4 [128]
0	0x3cac4ae5	0.021031806
1	0x3c7985b1	0.015229628
2	0x3d4b8a0f	0.04969221
3	0xbd109e29	-0.035307083
4	0xbce34d00	-0.027746677
5	0x3c56cab4	0.013109852
6	0xbc9c5b38	-0.019086465
7	0xbd35c960	-0.0443815
8	0xbc423601	-0.011853696
9	0x3c8a679f	0.016895114
10	0x3d210d99	0.03931961
11	0xbdda950f	-0.10672962
12	0x3c63e3fc	0.013909336
13	0x3c6511ea	0.013981322
14	0xbdb62562	-0.08893849
15	0xbd847305	-0.06467251
16	0xbd4ac14a	-0.04950074
17	0xbb66995f	-0.003518663
18	0xbd936ef1	-0.07198895
19	0xbccc4d2b	-0.02493914
20	0xbd037c63	-0.032101046
21	0x3c157066	0.009121036
22	0xbc008856	-0.007845005
23	0x3bc1d57d	0.0059153424
24	0x3cd33cb7	0.025785787
25	0x3af5e13c	0.0018759142
26	0x3c68ef15	0.014217158
27	0xbc721448	-0.014775343
28	0x3b851373	0.0040611564
29	0xbca3e07f	-0.020004509
30	0xbd3922cd	-0.045199204
31	0xbc7e47f2	-0.015520083
32	0xbc93a883	-0.018024689
33	0xbc722925	-0.014780317
34	0xbd62141a	-0.05519495
35	0xbc01fcbb	-0.007933791
36	0x3c884bfb	0.016637793
37	0x3d1cefd2	0.038314648
38	0xbd0efada	-0.0349072
39	0xbcaf246a	-0.021379668
40	0xbd907f24	-0.070555
41	0xbda91611	-0.08256162
42	0xbd2018db	-0.039086204
43	0x3c0d7497	0.008633754
44	0x3a4c2af4	0.0007788383
45	0xbd575438	-0.05257055
46	0x3aebe42b	0.0017997077
47	0xbd577016	-0.052597128
48	0xbcc8f8af	-0.024532644
49	0xbcecfa3e	-0.028927919
50	0xbcf5660a	-0.029955883
51	0xb9aa5a76	-0.00032492325
52	0x3cdeaf1c	0.027183108
53	0x3c336bb6	0.010950973
54	0x3b922d9c	0.0044610035
55	0xbc909fb1	-0.017654272
56	0xbc733096	-0.014843127
57	0xbd0e0303	-0.03467084
58	0xbd368c96	-0.044567667
59	0x3cabb9b2	0.02096257
60	0xbcfa2461	-0.030534925
61	0xbd320b79	-0.043467972
62	0x3960f200	0.00021452457
63	0x3b8053e1	0.003916249
64	0xbc98fa2a	-0.018673975
65	0xbc2aed76	-0.010432592
66	0xbcfb789a	-0.030697156
67	0xbd706a23	-0.05869497
68	0xbc29515a	-0.010334337
69	0x3c11b174	0.008892406
70	0xbca3981b	-0.01996999
71	0x3c9484eb	0.018129786
72	0xbd74cda3	-0.059766423
73	0xbd647757	-0.055777874
74	0xbc869e0a	-0.01643278
75	0xbc83ea05	-0.0161028
76	0x3b9c71fb	0.0047743297
77	0x3c8cd901	0.01719332
78	0xbc92876f	-0.017886845
79	0xbbe82b05	-0.0070852065
80	0xbd4674c1	-0.04845119
81	0xbcec6e74	-0.028861262
82	0xbd1a582c	-0.037681744
83	0x3bca9239	0.006181982
84	0x3ce152a9	0.027505236
85	0x3cfe9c7c	0.031080477
86	0xbc8ae64b	-0.016955515
87	0xbcab0241	-0.020875098
88	0xbd0165d3	-0.031591248
89	0xbce07480	-0.027399302
90	0xbca7a41e	-0.020464
91	0xba7d28ec	-0.0009657282
92	0xbd780e13	-0.060560297
93	0xbd40072b	-0.046881836
94	0xbcbf9eee	-0.023391213
95	0xbc619126	-0.013767516
96	0x3ce0609c	0.027389817
97	0x3c99aac1	0.01875818
98	0x3bde6ee1	0.00678812
99	0x3d145e19	0.03622255
100	0xbba2df12	-0.0049704397
101	0xbd940744	-0.07227948
102	0xbd10045c	-0.035160407
103	0xbbb89a3f	-0.005633622
104	0xbc819ded	-0.015822375
105	0x3d462641	0.048376326
106	0x3c47be02	0.0121912975
107	0xbcf0e46b	-0.029405793
108	0xbc03362e	-0.008008523
109	0x3b82e3a7	0.0039944234
110	0xbd883fdf	-0.066528074
111	0x3d20cd3c	0.039258227
112	0x3a1a02a3	0.00058750267
113	0x3b37d85e	0.002805255
114	0x3ce74b3c	0.028234117
115	0xbd07b7a7	-0.03313413
116	0xbd373945	-0.04473235
117	0xbc9f44d8	-0.019442007
118	0x3c9a122a	0.01880749
119	0xbd54abb7	-0.051921573
120	0xbacd47d8	-0.001566167
121	0x3b5d0eb3	0.0033730685
122	0xbd34fe41	-0.044187788
123	0xbcc504e0	-0.024050176
124	0xbd2db09d	-0.04240476
125	0x3b9b4d58	0.0047394447
126	0x3d1d2c39	0.038372252
127	0xbd91bded	-0.071163036

layers.2.running_mean f4 [128]
0	0x3d7e057a	0.06201694
1	0x3d440f16	0.04786595
2	0x3d8807fc	0.06642148
3	0x3cef13e9	0.029184299
4	0x3eaa08c4	0.33209813
5	0x3e64ec7d	0.22355838
6	0x3e9ccc59	0.30624655
7	0x3e205a84	0.15659529
8	0x3e150dde	0.14556071
9	0x3e39a226	0.18128261
10	0x3e1c0a83	0.15238385
11	0x3e1aae43	0.15105538
12	0x3e087b30	0.13328242
13	0x3d5f77b0	0.054557502
14	0xbcf6e676	-0.03013919
15	0x3ebb793a	0.36615926
16	0x3e8da1a8	0.27662396
17	0x3e36b6cf	0.17843173
18	0x3ebb62f6	0.3659894
19	0x3cf698e1	0.030102195
20	0x3dbbbbb4	0.09166661
21	0x3e376eff	0.17913435
22	0x3e05872d	0.13039847
23	0x3cfdfb1e	0.031003531
24	0xbd93114f	-0.07181036
25	0x3e30da81	0.17270853
26	0xbcf69925	-0.030102322
27	0x3dad0537	0.0844826
28	0x3ea9989f	0.33124253
29	0x3d099e94	0.033598498
30	0x3d278f59	0.04090819
31	0x3e61578a	0.2200605
32	0x3dc6579a	0.096846774
33	0x3e304116	0.17212328
34	0x3e938eb9	0.28819826
35	0x3d0c0143	0.03418089
36	0xbb7eeee0	-0.0038899705
37	0x3d08d03f	0.033401724
38	0x3d9626b3	0.073316
39	0x3dbe73c1	0.09299422
40	0x3bee91e2	0.007280574
41	0x3e69ea04	0.22843176
42	0x3d786a56	0.060648285
43	0x3d44556b	0.047933023
44	0xbc6c4840	-0.014421523
45	0x3d920749	0.07130296
46	0x3dc66e91	0.096890576
47	0x3d4c9a5a	0.04995189
48	0xbda7eea1	-0.08199812
49	0x3e853c54	0.2602259
50	0x3c67ff35	0.014159967
51	0xbcc149e0	-0.023594797
52	0x3c8e34a5	0.017359087
53	0x3e376ca2	0.17912534
54	0x3da738e1	0.08165146
55	0x3cefad56	0.029257458
56	0x3e99b70e	0.30022472
57	0x3e0cc267	0.13746034
58	0x3e8eb669	0.27873543
59	0xbd2801ff	-0.04101753
60	0xbc827411	-0.015924485
61	0x3c4abcb3	0.012374091
62	0x3e8e4b1d	0.27791682
63	0x3e72ebc0	0.23722744
64	0xbc2fbe46	-0.010726517
65	0x3dba3bda	0.09093447
66	0x3cd1835f	0.025575338
67	0x3e1f5fe9	0.1556393
68	0x3d60a464	0.054844275
69	0x3e9cacd8	0.3060062
70	0x3de3acab	0.11116918
71	0x3d304f4a	0.043044366
72	0x3da6f0f6	0.081514284
73	0x3e2302ab	0.15918986
74	0x3e38ba13	0.18039732
75	0x3dfbea4a	0.123005465
76	0x3e34d116	0.17657885
77	0x3d563508	0.05229667
78	0x3e9dcee2	0.30821902
79	0x3d803c15	0.0626146
80	0x3def744c	0.11692104
81	0x3e9ce8d4	0.30646384
82	0x3e844fde	0.25842184
83	0x3e862198	0.26197505
84	0x3e426a9c	0.18985981
85	0x3de050cd	0.109529115
86	0x3e8dd94c	0.27704847
87	0x3e922334	0.28542483
88	0xbc9a857f	-0.018862484
89	0x3d62722a	0.055284657
90	0x3b9ee280	0.0048487782
91	0x3e2a5f95	0.16638024
92	0x3e1db16b	0.15399711
93	0x3d6d7bf2	0.05797953
94	0x3dea1ae7	0.114309125
95	0x3e29863e	0.16555116
96	0x3d9ddd3f	0.07708215
97	0xbd0db576	-0.034596883
98	0x3ebe8486	0.37210482
99	0x3e14c427	0.14527951
100	0x3db4d772	0.088301554
101	0x3e152434	0.14564592
102	0x3e174b60	0.14774847
103	0x3c8b585a	0.017009903
104	0x3e6afe56	0.22948584
105	0x3d49e074	0.04928632
106	0x3d2fbcf6	0.042904817
107	0x3e27dbfe	0.16392514
108	0x3ce9778e	0.02849939
109	0x3d6e0005	0.058105487
110	0x3ca04e04	0.01956845
111	0xbd18a5ea	-0.037267603
112	0x3c28c9dd	0.010302034
113	0x3d50d34e	0.050982766
114	0x3e3d0365	0.18458326
115	0xbd25c939	-0.040475104
116	0xbae3f0cc	-0.0017390489
117	0x3e2a9662	0.16658929
118	0x3e1fb404	0.15596014
119	0x3e244037	0.16040121
120	0xbd23cf94	-0.039992884
121	0x3e3654ce	0.17805788
122	0x3e5d620b	0.21619432
123	0x3e90d8a2	0.28290278
124	0xbd1bbd61	-0.038022403
125	0xba951a78	-0.0011375686
126	0x3ce8a8bb	0.02840077
127	0xbd8d839e	-0.069098696

layers.2.running_var f4 [128]
0	0x3de642ba	0.11243196
1	0x3e05550b	0.13020723
2	0x3d943881	0.0723734
3	0x3d225f69	0.03964177
4	0x3e22ce91	0.15899111
5	0x3e2e8238	0.17041862
6	0x3e731491	0.23738314
7	0x3dfb66e3	0.122754835
8	0x3db1531e	0.086584315
9	0x3e26f48d	0.16304226
10	0x3e75fc8f	0.24022125
11	0x3e146ad4	0.14493877
12	0x3db9a00b	0.09063729
13	0x3da2f97c	0.079577416
14	0x3ccfe91d	0.025379712
15	0x3e734a31	0.2375877
16	0x3dfbf830	0.123031974
17	0x3dfa2ae0	0.12215209
18	0x3e3609e4	0.1777721
19	0x3d589c78	0.052883595
20	0x3d76b592	0.060231753
21	0x3e0b0e9e	0.13579795
22	0x3e0352ea	0.12824598
23	0x3d7ba09b	0.061432462
24	0x3c637938	0.013883881
25	0x3e0c3488	0.13691914
26	0x3cc41966	0.023937892
27	0x3d9c5d11	0.076349385
28	0x3e0db9b7	0.13840376
29	0x3d2e35bb	0.04253171
30	0x3d80a4a5	0.062814035
31	0x3df01174	0.11722079
32	0x3dfeec64	0.12447432
33	0x3e58707f	0.21136664
34	0x3df915eb	0.12162384
35	0x3d74e672	0.059790082
36	0x3d0f13ba	0.034930922
37	0x3de62fbb	0.112395726
38	0x3d892be5	0.06697825
39	0x3df21ce5	0.118219174
40	0x3d380d47	0.044934537
41	0x3e593421	0.21211292
42	0x3c82de41	0.01597512
43	0x3d660900	0.056160927
44	0x3d585b0f	0.052821215
45	0x3e167763	0.1469398
46	0x3df93a15	0.121692814
47	0x3d977c36	0.07396738
48	0x3cc118bb	0.023571363
49	0x3e676177	0.22595774
50	0x3db38984	0.087664634
51	0x3d192c82	0.03739596
52	0x3d676080	0.056488514
53	0x3d942309	0.07233245
54	0x3db797c2	0.089644924
55	0x3d859139	0.0652184
56	0x3e365aeb	0.1780812
57	0x3d8baffd	0.068206765
58	0x3e3e37d2	0.18575981
59	0x3d25b379	0.04045436
60	0x3d227d8e	0.03967052
61	0x3d3c22b7	0.045931544
62	0x3e0d2221	0.1378255
63	0x3e813d0e	0.25241894
64	0x3d2b7a06	0.041864417
65	0x3d7d0be2	0.06177891
66	0x3d8421a4	0.06451729
67	0x3e5605b2	0.2090061
68	0x3d83f34e	0.06442891
69	0x3e3b6270	0.1829927
70	0x3cfb5767	0.030681325
71	0x3d460a30	0.04834956
72	0x3d32987d	0.043602455
73	0x3e53d324	0.20686013
74	0x3e012e24	0.12615258
75	0x3d56bf63	0.052428614
76	0x3e2d8b6d	0.16947718
77	0x3d77e784	0.060523525
78	0x3e8cf09a	0.27527314
79	0x3d6e9e38	0.058256358
80	0x3e2241be	0.15845391
81	0x3e58b046	0.21160993
82	0x3e05017e	0.1298885
83	0x3d78b899	0.06072292
84	0x3e24b69c	0.16085285
85	0x3e0cc3b9	0.13746537
86	0x3e2d7c27	0.16941892
87	0x3e1bd15d	0.15216585
88	0x3db13d51	0.08654273
89	0x3dbe2368	0.09284097
90	0x3d9f7ba5	0.07787255
91	0x3e0fc5c9	0.14040293
92	0x3db3216d	0.0874661
93	0x3da9bb7d	0.08287714
94	0x3e2c3545	0.16817196
95	0x3da2173d	0.079145886
96	0x3decb4e5	0.115579404
97	0x3d245d37	0.04012796
98	0x3e951032	0.2911392
99	0x3e42f78c	0.19039744
100	0x3d630ab3	0.055430125
101	0x3dc50721	0.096205
102	0x3e18d9fb	0.14926903
103	0x3dc8d039	0.0980534
104	0x3e069c37	0.13145529
105	0x3d893a8d	0.06700621
106	0x3de80f14	0.11331001
107	0x3dff8680	0.12476826
108	0x3e03b7ef	0.12863134
109	0x3da3cef1	0.07998455
110	0x3d24fdae	0.04028099
111	0x3c243def	0.010024532
112	0x3d5291bd	0.051408518
113	0x3dbb0c41	0.091331966
114	0x3e4abd20	0.19798708
115	0x3d488d68	0.04896298
116	0x3d509bec	0.05092995
117	0x3e3f5918	0.1868633
118	0x3dd32387	0.10309511
119	0x3d85d730	0.065351844
120	0x3c4f48c6	0.012651628
121	0x3e06cd20	0.13164186
122	0x3e1330f1	0.14374138
123	0x3e90c51e	0.28275388
124	0x3d5a7dd6	0.053342663
125	0x3d66d0d9	0.056351516
126	0x3e124413	0.14283781
127	0x3c28e5a1	0.010308654

layers.3.weight f4 [128, 128]
0	0x3d20c549	0.039250646
1	0xbd086154	-0.033295944
2	0x3dfbd059	0.122955985
3	0xbd86fc4f	-0.06591093
4	0x3d47c614	0.048772886
5	0xbd037b6e	-0.032100134
6	0x3cef930c	0.029244922
7	0xbd2e7edf	-0.042601462
8	0xbd6d2906	-0.05790045
9	0xbd940a37	-0.07228511
10	0x3ba1dcc3	0.004939647
11	0x3dc623a6	0.09674768
12	0x3da3175a	0.07963438
13	0xbd497be7	-0.049190428
14	0xbc1223bb	-0.008919652
15	0xbcd66793	-0.026172435
16	0xbddda412	-0.108223096
17	0x3daa7e84	0.08324912
18	0xbc0420b3	-0.008064437
19	0x3c2f6f41	0.010707677
20	0xbcc91a6d	-0.024548734
21	0xbd143d5d	-0.036191333
22	0x3d0ae8ed	0.03391354
23	0x3d8295d7	0.06376236
24	0x3c74a491	0.014931814
25	0xbc77e369	-0.015129902
26	0x3d6bab3e	0.057536356
27	0xbda0c755	-0.078505196
28	0xbca20e22	-0.01978213
29	0xbce74b76	-0.028234225
30	0x3db6fd60	0.08935046
31	0xbca29187	-0.019844783
32	0x3cbdebac	0.023183666
33	0xbad903c8	-0.0016556913
34	0xbcb01a23	-0.021496838
35	0xbdb70fb9	-0.08938546
36	0xbdd3234a	-0.10309465
37	0x3dd1eae9	0.10249884
38	0x3dcac753	0.09901299
39	0x3d8ba95c	0.06819412
40	0xbd43533c	-0.0476868
41	0x3d0fe337	0.0351288
42	0xbce3fdcf	-0.027830986
43	0x3d0c7128	0.0342876
44	0x3d8a53d5	0.06754271
45	0x3db158f2	0.08659543
46	0x3dab8612	0.08375181
47	0x3cf1516a	0.029457767
48	0xbcc69b18	-0.024243876
49	0x3d190c33	0.03736515
50	0xbb628bb6	-0.0034568137
51	0xbc85c198	-0.016327664
52	0xbbc5d5b8	-0.00603744
53	0x3cb5039f	0.022096453
54	0xbcf8e562	-0.030382816
55	0xbcf30f48	-0.029670373
56	0x3af8c526	0.0018979653
57	0xbd574dad	-0.05256431
58	0xbcf0bbfd	-0.029386515
59	0xbd3be0ef	-0.04586881
60	0xbd4e939e	-0.050433747
61	0x3d29023b	0.041261893
62	0x3da93b10	0.082632184
63	0x3d7ed4d2	0.06221468
64	0xbd7b7ab3	-0.061396312
65	0xbdafe840	-0.0858922
66	0x3d0ae6f2	0.033911653
67	0x3dd6eb21	0.10494066
68	0xbdcb4d73	-0.09926882
69	0x3d2d6526	0.04233279
70	0x3defae83	0.11703207
71	0x3bab2999	0.0052234647
72	0xbc8ba74e	-0.01704755
73	0x3d65e380	0.056125164
74	0x3cd0e7ba	0.02550112
75	0x3d0a7761	0.033805255
76	0xbda0d0aa	-0.078522995
77	0x3d9ad702	0.07560541
78	0xbd517611	-0.051137988
79	0x3e0db6bf	0.13839243
80	0xbd32f163	-0.043687236
81	0x3dbe64ad	0.09296546
82	0x3d4ec0e2	0.050476916
83	0x3d37813c	0.044800982
84	0x3c21b0b2	0.009868788
85	0x3d82ada4	0.063807756
86	0xbbd3e249	-0.0064661843
87	0xbce0abfa	-0.027425755
88	0xbd88d6dc	-0.06681606
89	0x3e02568d	0.12728329
90	0xbd4002f7	-0.046877827
91	0x3d26d806	0.04073336
92	0x3ad957e0	0.0016581975
93	0x3cee283e	0.029071923
94	0x3d92b287	0.07162958
95	0x3df41dde	0.11919759
96	0xbd196b37	-0.037455764
97	0xbd0f7fb2	-0.03503389
98	0xbbe435bd	-0.006964414
99	0xbc309195	-0.010776897
100	0x3da97385	0.08273987
101	0xbd8d088c	-0.06886396
102	0x3cfb80b7	0.030701024
103	0x3de61292	0.11234011
104	0x3d1225b1	0.035680477
105	0xbc3ddaef	-0.011587842
106	0xbdc242cb	-0.09485396
107	0x3dcee76d	0.10102735
108	0xbd057cd3	-0.032589745
109	0xbda912a9	-0.08255512
110	0x3db87d8f	0.090083234
111	0x3c723526	0.014783179
112	0xbd84032b	-0.06445917
113	0x3df4d893	0.11955371
114	0xbd979b83	-0.074027084
115	0xbd6b89a8	-0.057504326
116	0x3c9d4f32	0.019202802
117	0xbcced174	-0.02524636
118	0x3ddaddf5	0.10686866
119	0xbddfb461	-0.109230764
120	0xbd3d2b37	-0.04618379
121	0xbb8f5195	-0.004373739
122	0xbda83071	-0.082123645
123	0xbdb2db69	-0.087332554
124	0x3c622673	0.013803112
125	0xbb78e8cd	-0.0037980557
126	0xbdabfbeb	-0.08397659
127	0x3d8db787	0.06919771
128	0x3cb430f4	0.021995999
129	0xbb75e898	-0.003752267
130	0xbd151a0b	-0.03640179
131	0x3c07e2c0	0.0082938075
132	0x3da98b40	0.08278513
133	0x3d9f4192	0.077761784
134	0xbda9c642	-0.08289768
135	0x3dbfd285	0.09366325
136	0xbafd2a5c	-0.0019314992
137	0x3ccaa8e3	0.024738735
138	0x3da9c72b	0.082899414
139	0x3da3a343	0.07990124
140	0xbd2a1ece	-0.041533284
141	0x3d914fd1	0.07095302
142	0xbdccc64b	-0.09998759
143	0x3c453369	0.012036183
144	0xbd39e7b5	-0.04538699
145	0xb94d0790	-0.00019553141
146	0xbb91e308	-0.004452113
147	0xbca3a973	-0.01997826
148	0x3c21c12d	0.009872717
149	0x3c600502	0.013673069
150	0x3e03e168	0.12878954
151	0x3c2e902d	0.010654491
152	0x3d3337f2	0.043754525
153	0x3c8bdaeb	0.017072162
154	0x3d4e04ab	0.05029742
155	0xba99d2dd	-0.0011735816
156	0xbc645803	-0.013936999
157	0xb78ab700	-1.6536098e-05
158	0xbdaa5ebb	-0.0831885
159	0xbdeeb081	-0.11654759
160	0x3ccc68ed	0.024952376
161	0x3bbf9c4b	0.005847489
162	0xbb5b7690	-0.0033487417
163	0xbced203b	-0.028946033
164	0x3c101eec	0.008796435
165	0x3d2f3296	0.042772852
166	0xbca0b9c9	-0.01961984
167	0x3d45039d	0.04809915
168	0x3dc1d3d7	0.09464233
169	0xbd57148a	-0.052509822
170	0xbd710fe9	-0.058853064
171	0xbdc30eb8	-0.09524292
172	0xbd8a13bd	-0.06742046
173	0xbc3e3712	-0.0116098095
174	0x3bd47aaf	0.0064843516
175	0xbc8ea269	-0.017411428
176	0xbcb68165	-0.022278497
177	0xbd8b78de	-0.06810163
178	0xbc8dd8a1	-0.01731521
179	0x3da3923c	0.07986876
180	0xbd128635	-0.03577252
181	0xbda4b159	-0.08041639
182	0x3d9b34f9	0.07578463
183	0xbc0faaff	-0.008768796
184	0x3db3532f	0.087561004
185	0x3db7fbcf	0.089835756
186	0x3d824caa	0.06362279
187	0xbdb3b242	-0.08774234
188	0x3d11e75b	0.03562103
189	0x3d140692	0.03613908
190	0xbda2e3bb	-0.079535924
191	0x3d88e437	0.066841535
192	0x3d5697ce	0.052390866
193	0x3c81281a	0.015766192
194	0x3d872d63	0.06600454
195	0xbc0453a4	-0.008076582
196	0xbe06b367	-0.13154374
197	0x3c6e3e6c	0.01454125
198	0x3d5bdd20	0.053677678
199	0xbc12d632	-0.008962201
200	0x3d386ddf	0.045026656
201	0xbc76c203	-0.015060904
202	0x3d985bb1	0.07439364
203	0x3d5ceb9f	0.053935643
204	0x3cfef52c	0.031122766
205	0xbc6c5449	-0.014424392
206	0x3db33a7f	0.087513916
207	0x3ce7ef13	0.028312242
208	0x3d2c853b	0.042119246
209	0x3d029612	0.0318814
210	0x3daa6b68	0.08321267
211	0xbd27fda9	-0.041013394
212	0xbcf5f9c2	-0.03002632
213	0xbd124754	-0.035712555
214	0x3d0ae301	0.033907894
215	0x3dd77668	0.10520631
216	0xbd677d4d	-0.05651598
217	0x3bbf49d2	0.0058376575
218	0xbc1a000f	-0.009399428
219	0xbd28a02c	-0.041168377
220	0x3d73e547	0.059544828
221	0x3d02fc66	0.031978987
222	0xbde0c5bd	-0.109752156
223	0xbcbeade2	-0.023276273
224	0x3aaac576	0.0013028819
225	0x3d0db499	0.03459606
226	0xbccd1ba5	-0.025037596
227	0xbd5672b3	-0.05235548
228	0xbc92e3f3	-0.01793096
229	0x3c9a0bdb	0.018804481
230	0xbd332c5a	-0.04374347
231	0x3dcab531	0.09897841
232	0xbd34eb31	-0.04416961
233	0x3d9a6c33	0.075401686
234	0x3b8f4f41	0.0043734615
235	0xbd9bd34a	-0.076086596
236	0x3c19e2d0	0.009392455
237	0x3d9718cb	0.07377776
238	0xbd0dfa09	-0.03466228
239	0xbd4624b9	-0.048374865
240	0x3d8c4864	0.06849745
241	0x3d1f1c8a	0.038845576
242	0xbdba3cc9	-0.09093625
243	0x3c8f3acb	0.01748409
244	0xbce4d62f	-0.027934162
245	0xbda77a99	-0.081776805
246	0x3d00f7d8	0.031486362
247	0x3ce362eb	0.027757129
248	0xbd6dfce4	-0.058102503
249	0x3d702bd5	0.05863555
250	0xbda14985	-0.07875351
251	0x3d9358ee	0.07194696
252	0x3d826cf8	0.063684404
253	0x3bed2941	0.007237584
254	0x3ca2c03f	0.01986706
255	0x3d85170f	0.06498539

layers.3.bias f4 [128]
0	0xbd754476	-0.059879743
1	0xbbdfbd31	-0.0068279733
2	0xbd6b10ec	-0.057389185
3	0x3d48def9	0.04904077
4	0xbd031c1d	-0.032009233
5	0xbdc9d191	-0.09854425
6	0x3ced0679	0.02893375
7	0xbc143d24	-0.00904778
8	0xbd2ba7fc	-0.04190825
9	0x3db47768	0.088118374
10	0xbd992a55	-0.07478777
11	0xbd9ff0fe	-0.078096375
12	0xbb3df2d7	-0.0028983855
13	0xbc41d69f	-0.011830955
14	0xbd92d194	-0.0716888
15	0xbc53af83	-0.012920263
16	0xbde899a7	-0.11357432
17	0xbdcc3b00	-0.09972191
18	0xbde0a19d	-0.10968325
19	0xbda6f9a5	-0.08153085
20	0x3b6e88f2	0.0036397544
21	0x3d6fa7ea	0.058509745
22	0x3b9fb051	0.0048733135
23	0xbcb4a055	-0.022049109
24	0x3c4b0735	0.012391855
25	0xbd94b864	-0.07261732
26	0xbd615347	-0.05501106
27	0xbdaf8490	-0.08570206
28	0xbda24003	-0.079223655
29	0x381f4234	3.797021e-05
30	0x3d12ad48	0.035809785
31	0x3d6cea45	0.057840604
32	0xbd90c3b3	-0.07068577
33	0xbc9c2b6f	-0.01906368
34	0x3d14cdaa	0.03632895
35	0xbc71556f	-0.014729842
36	0xbc8bf72c	-0.017085634
37	0xbdd0a7a2	-0.101882234
38	0xbc99539d	-0.018716628
39	0xbd433589	-0.047658477
40	0x3b23de82	0.002500445
41	0xbe0bf2dc	-0.13666862
42	0xbce22039	-0.027603256
43	0xbc7af5be	-0.015317379
44	0xbdcbd8a6	-0.09953432
45	0xbd249488	-0.040180713
46	0x3d9dff01	0.07714654
47	0x3c310f13	0.010806817
48	0xbdbb7fb5	-0.091552176
49	0xbd468c1e	-0.04847347
50	0x3d0a906f	0.03382915
51	0x3d37c219	0.04486284
52	0xbd7161b5	-0.05893107
53	0xbd42dd14	-0.047574118
54	0xbd19d8a8	-0.037560135
55	0xbd2681fe	-0.040651314
56	0xbc24d4a0	-0.010060459
57	0x3c5e0d21	0.013552935
58	0xbd717108	-0.058945686
59	0xbd92ab86	-0.07161622
60	0x3d074644	0.033025995
61	0xbdbe057d	-0.092783906
62	0xbd5b99cc	-0.05361347
63	0xbdb95d5e	-0.090510115
64	0xbd9154a3	-0.07096221
65	0x3d0f1fde	0.0349425
66	0xbcd32212	-0.025773082
67	0x3cc563d3	0.024095451
68	0x3ddaaff9	0.10678095
69	0xbd21faef	-0.03954595
70	0xbdc85187	-0.09781175
71	0x3cb7fa61	0.022458257
72	0xbb461bf0	-0.0030229054
73	0xbdde7a4b	-0.10863169
74	0xbd2da4f7	-0.04239365
75	0xbd896462	-0.067085996
76	0xbd0001cc	-0.031251714
77	0x3d2f4023	0.042785775
78	0x3d49f873	0.049309205
79	0x3d91ae3e	0.07113312
80	0xbda1f4e9	-0.07908041
81	0x3cd44d93	0.025915897
82	0xbd6e43f9	-0.058170293
83	0xbd83f1db	-0.06442615
84	0xbd457636	-0.048208438
85	0x3d1eca0f	0.038766917
86	0xbc709097	-0.01468291
87	0xbdac981a	-0.084274486
88	0xbc4feb5c	-0.012690391
89	0xbd0cb91c	-0.03435622
90	0x3d0ba365	0.034091372
91	0xbd2d08a0	-0.042244554
92	0xbded81b3	-0.11597004
93	0xbd529e1a	-0.05142031
94	0xbd0feecc	-0.035139844
95	0xbc05635c	-0.008141365
96	0xbce73fbc	-0.028228633
97	0x3dd650e1	0.10464645
98	0x3cadaead	0.021201456
99	0xbdb6d268	-0.089268506
100	0xbdd18150	-0.102297425
101	0xbd7a2dd0	-0.061078846
102	0x3c401646	0.01172406
103	0xbb9b4ab7	-0.0047391313
104	0xbe14a25e	-0.14515063
105	0x3d4068ce	0.04697495
106	0x3d73e909	0.05954841
107	0xbd7b8d0f	-0.06141382
108	0x3c58d2f8	0.013233893
109	0x3db467d3	0.088088654
110	0x3d0fcda0	0.03510821
111	0x3d3799bf	0.044824358
112	0xbdb6af54	-0.0892016
113	0xbdb123a2	-0.086493745
114	0x3da83f60	0.08215213
115	0xbce9cd96	-0.028540414
116	0x3db9e730	0.09077299
117	0x3ced51fe	0.028969761
118	0xbdc4c063	-0.09607007
119	0x3882fed4	6.2463485e-05
120	0xbdb0ec8a	-0.08638866
121	0xbda9467b	-0.08265396
122	0x3c83b0c7	0.016075505
123	0x3d3ab698	0.04558429
124	0x3cd5f391	0.026117118
125	0x3cf50a39	0.029912101
126	0x3cd00c88	0.0253966
127	0x3bc20d29	0.005921979

layers.5.weight f4 [128]
0	0x3f7f9fff	0.9985351
1	0x3f7ad46d	0.97980386
2	0x3f7f2320	0.9966297
3	0x3f809dd5	1.0048167
4	0x3f7fe233	0.9995453
5	0x3f778aa9	0.96695954
6	0x3f7c0df2	0.9845878
7	0x3f830d8b	1.0238508
8	0x3f800bef	1.0003642
9	0x3f79cca6	0.97577894
10	0x3f7e159c	0.99251723
11	0x3f8108d8	1.0080824
12	0x3f7297a9	0.94762665
13	0x3f83a3d9	1.0284377
14	0x3f8468d5	1.0344492
15	0x3f83cc03	1.0296634
16	0x3f8043ff	1.0020751
17	0x3f8072b5	1.0035006
18	0x3f802ac2	1.0013049
19	0x3f86d0db	1.0532488
20	0x3f867935	1.050574
21	0x3f76218d	0.96144944
22	0x3f8230c3	1.0171131
23	0x3f7a5d29	0.977984
24	0x3f7128fb	0.94203156
25	0x3f818fe9	1.0122043
26	0x3f7f22e5	0.9966262
27	0x3f80f46f	1.0074595
28	0x3f8193de	1.012325
29	0x3f830cbc	1.0238261
30	0x3f795233	0.9739105
31	0x3f79fa35	0.9764741
32	0x3f7afe32	0.9804412
33	0x3f7ffe31	0.9999724
34	0x3f844038	1.0332098
35	0x3f8458cc	1.0339599
36	0x3f811e83	1.0087436
37	0x3f7b45be	0.98153293
38	0x3f7d44b5	0.98932964
39	0x3f81ef5b	1.015117
40	0x3f81500f	1.0102557
41	0x3f7ee446	0.9956707
42	0x3f76657c	0.962486
43	0x3f75f477	0.9607615
44	0x3f817bcc	1.0115905
45	0x3f7f90e3	0.99830455
46	0x3f7eabff	0.99481195
47	0x3f7b1053	0.98071784
48	0x3f81c6c9	1.013879
49	0x3f7f998b	0.9984366
50	0x3f7ec601	0.9952088
51	0x3f7dfbc2	0.99212277
52	0x3f7cf8d7	0.988172
53	0x3f848a09	1.0354625
54	0x3f7bc688	0.9834981
55	0x3f82ccde	1.021877
56	0x3f8128ba	1.0090554
57	0x3f8132dc	1.0093646
58	0x3f7f642b	0.9976222
59	0x3f7dd2b9	0.9914966
60	0x3f80aafc	1.005218
61	0x3f83a265	1.0283934
62	0x3f7c3689	0.98520714
63	0x3f807e45	1.0038534
64	0x3f832142	1.0244524
65	0x3f8452ea	1.0337803
66	0x3f763e2b	0.9618861
67	0x3f870492	1.054827
68	0x3f7d7dfb	0.99020356
69	0x3f7f5766	0.99742734
70	0x3f78dbb9	0.9721027
71	0x3f80cdc8	1.00628
72	0x3f8538f1	1.0408002
73	0x3f82830f	1.0196246
74	0x3f7e5d47	0.9936108
75	0x3f797629	0.97445923
76	0x3f6dc7de	0.928831
77	0x3f77f61c	0.9685991
78	0x3f804369	1.0020572
79	0x3f7e27b1	0.99279314
80	0x3f81b472	1.0133193
81	0x3f80f366	1.0074279
82	0x3f7d752b	0.9900691
83	0x3f7fb087	0.99878734
84	0x3f7d84ff	0.9903106
85	0x3f7b4a6d	0.9816044
86	0x3f851304	1.0396428
87	0x3f840ba0	1.0316048
88	0x3f80c377	1.0059651
89	0x3f7ec2d6	0.99516046
90	0x3f812a99	1.0091125
91	0x3f854698	1.0412169
92	0x3f795779	0.973991
93	0x3f805a29	1.0027515
94	0x3f83c531	1.0294553
95	0x3f7c6604	0.98593163
96	0x3f7d6b2f	0.98991674
97	0x3f82f408	1.0230722
98	0x3f7f311d	0.99684316
99	0x3f7b0d56	0.98067224
100	0x3f83e5bd	1.0304486
101	0x3f802a23	1.0012859
102	0x3f851d18	1.0399504
103	0x3f81c1cf	1.0137271
104	0x3f83582b	1.0261282
105	0x3f8315b2	1.0240996
106	0x3f791e7d	0.97312146
107	0x3f786d3c	0.9704168
108	0x3f835dd9	1.0263015
109	0x3f7eccab	0.9953105
110	0x3f836766	1.026593
111	0x3f80ef09	1.0072948
112	0x3f846368	1.0342836
113	0x3f7b2927	0.9810967
114	0x3f7dfd41	0.9921456
115	0x3f76b418	0.9636855
116	0x3f7ca2df	0.9868602
117	0x3f800221	1.000065
118	0x3f7cf52e	0.98811615
119	0x3f815c72	1.0106337
120	0x3f8b5cea	1.088773
121	0x3f771351	0.9651385
122	0x3f80e662	1.0070307
123	0x3f7dfb6c	0.99211764
124	0x3f7d5c82	0.9896928
125	0x3f7ec6c8	0.99522066
126	0x3f843e69	1.0331546
127	0x3f8230cc	1.0171142

layers.5.bias f4 [128]
0	0x3d13d2ae	0.03608959
1	0x3d9dd6f8	0.07707018
2	0xbdb89024	-0.09011868
3	0x3d884ff2	0.06655873
4	0x3d1e9bff	0.03872299
5	0x3c18d5b4	0.009328295
6	0x3d892e17	0.06698244
7	0xbd1b79cf	-0.037957963
8	0xbcbbd4be	-0.022928592
9	0x3d90c3c6	0.07068591
10	0x3d873a8c	0.06602964
11	0xbc7ca0f8	-0.015419237
12	0xbcc80cad	-0.024420107
13	0x3c1d1f8f	0.009590044
14	0x3d91f6b9	0.07127137
15	0xbc6bb32c	-0.01438598
16	0xbd449a02	-0.047998436
17	0x3dac8b5d	0.08425019
18	0xbd145cd0	-0.036221325
19	0xbd713fd9	-0.05889878
20	0xbd7c5108	-0.061600715
21	0xbc465223	-0.012104544
22	0x3c927fa6	0.017883133
23	0x3c54f747	0.012998409
24	0x3c750eab	0.01495711
25	0x3dcd0ab1	0.10011805
26	0x3d9983d1	0.07495845
27	0x3d72ade3	0.059247863
28	0x3cd8650e	0.026415374
29	0x3c310107	0.010803468
30	0x3962a4dc	0.00021614454
31	0xbd6b3d96	-0.05743178
32	0x3d0ac8ce	0.03388291
33	0x3bcbc71f	0.0062188054
34	0x3a67b517	0.0008838935
35	0xbd694b60	-0.05695665
36	0x3cb98579	0.022646653
37	0x3c5c73ec	0.013455372
38	0xbd00c8c2	-0.031441458
39	0xbb2cef82	-0.0026387875
40	0xbc31309c	-0.010814812
41	0xbcbd8f41	-0.023139598
42	0x3c24f41a	0.010067964
43	0xbccae17e	-0.024765726
44	0x3d614f42	0.055007227
45	0x3ca5cb83	0.020238644
46	0x39dd9b56	0.0004226814
47	0xbc1136ec	-0.008863192
48	0x3c4cc9c6	0.012499278
49	0xbb849c5d	-0.0040469603
50	0x3d7e3323	0.062060487
51	0x3d2bf714	0.04198368
52	0xbcbe2097	-0.0232089
53	0xbc53c6cc	-0.012925815
54	0x3c4532da	0.01203605
55	0x3d1132b6	0.035448752
56	0x3b363383	0.00278017
57	0xbbe47bf7	-0.0069727856
58	0x3d17761e	0.03697788
59	0x39cd9570	0.00039211987
60	0xbd6531e2	-0.055955775
61	0x3d4281d7	0.047487106
62	0xbbdc89e5	-0.0067303055
63	0xbd10bfdb	-0.035339218
64	0xbde05ae7	-0.10954838
65	0x3bfeb048	0.007772479
66	0x3c613320	0.013745099
67	0x3d828c48	0.06374413
68	0xbc15c701	-0.0091416845
69	0x3cadaa37	0.021199329
70	0xbd1daa4e	-0.038492493
71	0x3c413354	0.011792023
72	0xbc24bdc8	-0.010055013
73	0x3bfcd7ab	0.0077161393
74	0x3c94e200	0.018174171
75	0xbd20a749	-0.039222036
76	0xbd28318c	-0.041062877
77	0xbd35de13	-0.04440124
78	0x3d64ffee	0.055908136
79	0x3d8d46f7	0.06898301
80	0xbd5b51e9	-0.053544912
81	0x3cd04c1e	0.02542692
82	0xbcc73265	-0.024316022
83	0xbc02ff30	-0.007995412
84	0x3b2b7d35	0.0026167159
85	0x3cbaff08	0.022826687
86	0x3b743afe	0.0037266607
87	0xbcedf0bd	-0.029045457
88	0xbc38588b	-0.011251579
89	0x3d4510b0	0.048111618
90	0xbcbb2248	-0.022843495
91	0x3d117088	0.03550771
92	0xbd2c86f0	-0.042120874
93	0x3c939068	0.018013194
94	0x3ce3c0fd	0.027801985
95	0x3d8ca95f	0.068682425
96	0x3cbed769	0.023296075
97	0xbcbe6ed1	-0.0232462
98	0xbc3e3116	-0.011608383
99	0x3c3c2bef	0.011485084
100	0xbd13d059	-0.036087368
101	0x3b8223a6	0.003971535
102	0xbbc2f9b5	-0.0059501776
103	0x3d84e2d3	0.06488576
104	0xbcd158e6	-0.025555085
105	0x3b40c790	0.0029415824
106	0xbc004564	-0.007829044
107	0xbbde04b6	-0.006775464
108	0x3d13132b	0.035906952
109	0xbde0e0b0	-0.10980356
110	0xbc08db46	-0.00835306
111	0xbc28c87c	-0.010301705
112	0x3c805692	0.01566628
113	0x3dae68c5	0.08516077
114	0x3d510c0c	0.05103688
115	0x3da23153	0.07919564
116	0x3c323276	0.010876289
117	0xbd914508	-0.07093245
118	0xbc27f7e6	-0.010251975
119	0xbd1063e7	-0.035251524
120	0x3c1121a9	0.008858123
121	0x3d885faf	0.06658875
122	0x3cf7cf7d	0.030250305
123	0xbdbfe440	-0.09369707
124	0xbd803891	-0.06260789
125	0x3d908e8a	0.07058437
126	0x3b3cb471	0.0028794075
127	0xbcc852ba	-0.02445351

layers.5.running_mean f4 [128]
0	0x3ec1cc24	0.3785106
1	0x3f1cbf9b	0.61229867
2	0x3ef505ce	0.4785599
3	0x3d534114	0.051575735
4	0x3e7934aa	0.24336496
5	0xbe24a3ca	-0.16078106
6	0x3e6fa420	0.23402452
7	0x3e3bca4b	0.18338887
8	0x3ed1b9be	0.40962023
9	0x3ef6a683	0.48173913
10	0x3f0cf1ee	0.55056655
11	0xbe199d03	-0.15001301
12	0x3e5e2587	0.21694003
13	0x3eda9e46	0.42698878
14	0xbd781606	-0.06056788
15	0xbd15186f	-0.036400255
16	0x3d9cd9ea	0.07658751
17	0x3c0d9581	0.008641602
18	0x3dc856f7	0.09782212
19	0x3e0c5a56	0.13706335
20	0xbd3ecf60	-0.046584487
21	0x3e52b152	0.20575455
22	0x3f2b815c	0.6699426
23	0x3f01b4bb	0.506664
24	0x3eb8e375	0.36111036
25	0x3e7237bd	0.23654075
26	0x3f12d18a	0.5735098
27	0x3e9f53c3	0.31118593
28	0x3f232cad	0.63740045
29	0x3e570b7b	0.21000473
30	0x3d6d98e8	0.05800715
31	0x3f026d18	0.50947714
32	0x3ecfcf3e	0.405878
33	0xbdb22af3	-0.08699598
34	0xbe21eafa	-0.15812293
35	0x3ddf0607	0.108898215
36	0x3d061346	0.032733224
37	0xbe6bb748	-0.23019135
38	0x3f1fa988	0.6236806
39	0x3d7a20d8	0.06106648
40	0x3ea9cdc4	0.331648
41	0xbed8a222	-0.42311198
42	0x3e2c18dd	0.1680636
43	0x3e243a2e	0.16037819
44	0xbed8af08	-0.42321038
45	0x3e12ab5e	0.14323184
46	0x3ebe3d39	0.37156084
47	0x3cf64676	0.030062895
48	0x3eae3f46	0.3403265
49	0x3f0641f9	0.52444416
50	0xbe867ae1	-0.26265624
51	0x3f1a90f4	0.6037743
52	0x3f77c6c9	0.967877
53	0x3f1caea2	0.6120397
54	0xbcb6d133	-0.02231655
55	0x3efc5f83	0.4929162
56	0xbe0bbee2	-0.13647035
57	0x3ee5901e	0.44836515
58	0xbd90834b	-0.07056292
59	0x3e9b68f2	0.30353504
60	0xbcca8100	-0.024719715
61	0x3e294ae0	0.16532469
62	0x3dfa5764	0.122237
63	0x3f0a3460	0.5398617
64	0xbc944590	-0.018099576
65	0x3f3a2222	0.7270833
66	0x3eaf1904	0.34198773
67	0xbe1f37ee	-0.15548679
68	0x3f4512b0	0.7698164
69	0x3f723589	0.9461294
70	0xbe5df753	-0.21676378
71	0x3e446cc4	0.19182116
72	0x3ec68a40	0.3877735
73	0xbe1251ba	-0.14288989
74	0x3f44b76e	0.7684239
75	0xbe22d481	-0.15901376
76	0x3d002b05	0.031291027
77	0x3e9dc110	0.30811357
78	0x3f18112f	0.5940122
79	0x3ee97f25	0.45604816
80	0xbeaa279f	-0.33233353
81	0x3e3c1ace	0.183696
82	0x3e4e1cf3	0.20128231
83	0x3e494b52	0.19657639
84	0x3e2aec54	0.16691715
85	0x3e80ab4a	0.25130683
86	0x3d69dc7c	0.057095036
87	0xbda1be51	-0.07897628
88	0xbdc3d903	-0.09562876
89	0x3ea4dbea	0.3219903
90	0x3edb0c2e	0.4278273
91	0x3ea2e91a	0.31818467
92	0x3e9e75e4	0.30949318
93	0x3e607d0c	0.21922702
94	0x3e3de887	0.18545733
95	0x3ef8f648	0.48625398
96	0x3e42d748	0.19027436
97	0x3f87d778	1.0612631
98	0x3ef20c84	0.47275174
99	0x3d436462	0.047703154
100	0x3ea88e93	0.32921275
101	0xbeb721e8	-0.35768056
102	0x3e56d9c6	0.20981511
103	0x3e16ee9e	0.14739463
104	0xbe23db13	-0.16001539
105	0x3f3b865f	0.7325191
106	0x3cba7e88	0.022765413
107	0xbdc77604	-0.097393066
108	0x3df58692	0.11988558
109	0x3ec0530c	0.3756336
110	0x3e8ffe9f	0.28123948
111	0x3edb140e	0.42788738
112	0x3f3e3f66	0.7431549
113	0x3ea318d5	0.31854883
114	0x3f17b3c1	0.5925866
115	0x3f325ac6	0.6966976
116	0xbe2d44d6	-0.1692079
117	0x3d973bed	0.07384477
118	0x3e093971	0.13400818
119	0x3ea85dc9	0.32884052
120	0x3e25ebde	0.16203257
121	0xbd89ee6a	-0.06734927
122	0x3e99e441	0.30056956
123	0x3d82d05a	0.06387396
124	0xbe0dc8a4	-0.1384607
125	0x3dfa01cb	0.12207373
126	0x3eac13a2	0.3360873
127	0x3e66a192	0.22522572

layers.5.running_var f4 [128]
0	0x400e2dc6	2.2215438
1	0x3fdef0cc	1.7417235
2	0x3fe221cc	1.7666564
3	0x3f57cc50	0.8429613
4	0x3f1c4b5e	0.610525
5	0x402edf44	2.732377
6	0x3f80ca3b	1.0061716
7	0x3fd173ef	1.6363505
8	0x3f25cb65	0.6476348
9	0x402dd80e	2.716312
10	0x4038d6cf	2.8881109
11	0x3f65ccb8	0.897655
12	0x407d147d	3.9543755
13	0x3f972cca	1.1810544
14	0x3fbe0eb0	1.4848232
15	0x3fcc1fa0	1.5947151
16	0x40117939	2.2730238
17	0x3f8978e2	1.0740016
18	0x401b5d54	2.4275713
19	0x3f65b689	0.8973165
20	0x40192bcf	2.3932989
21	0x4017cde1	2.3719409
22	0x401daa7d	2.4635308
23	0x3fc0b8a0	1.5056343
24	0x3f54bb77	0.8309855
25	0x3fb54d82	1.4164279
26	0x3f7c4428	0.985415
27	0x3fb82052	1.4384863
28	0x403d6e07	2.9598405
29	0x3fe95941	1.8230363
30	0x3fedc46d	1.8575569
31	0x401adfad	2.419902
32	0x3fd2db52	1.6473181
33	0x4017fbff	2.3747556
34	0x3f4aef46	0.7927135
35	0x3f8f4caf	1.1195277
36	0x3fb55ff9	1.4169914
37	0x3f593dd4	0.8485997
38	0x400a0be2	2.1569753
39	0x3fc48f41	1.5356218
40	0x3f7722f9	0.9653774
41	0x3fad6578	1.3546591
42	0x3fb388ce	1.4026124
43	0x400b1804	2.1733408
44	0x3fbbe41a	1.4678986
45	0x400111bc	2.0167074
46	0x3ff5cdbb	1.9203409
47	0x4027844b	2.6174495
48	0x3fb41aa2	1.4070628
49	0x401772ed	2.3663895
50	0x3fe8101a	1.8129914
51	0x4013fca4	2.312295
52	0x400aa76a	2.1664681
53	0x3ff3f37b	1.9058679
54	0x4023703d	2.5537255
55	0x3f9ad3ca	1.2095883
56	0x3fab3c3a	1.3377755
57	0x3fd21385	1.6412207
58	0x4010d11a	2.2627625
59	0x3fbfc6cc	1.4982543
60	0x3f906451	1.1280614
61	0x3fc43878	1.5329733
62	0x403b82c7	2.929857
63	0x3fe5cf14	1.795382
64	0x3f9e443e	1.2364576
65	0x3f3c75ab	0.7361705
66	0x3fe725ce	1.8058412
67	0x3f5d232c	0.86381793
68	0x408ddded	4.4333405
69	0x3fdbbffb	1.7167963
70	0x3f9d6489	1.2296306
71	0x3fa939e7	1.3220795
72	0x3fb2bec2	1.3964465
73	0x3f29f151	0.66383845
74	0x3fc41098	1.5317564
75	0x3fe7b706	1.8102729
76	0x3fd17cc8	1.6366205
77	0x400959c7	2.1461046
78	0x401132e5	2.2687314
79	0x3fc46243	1.5342487
80	0x4002fdb4	2.0467348
81	0x3fe6c678	1.8029318
82	0x40409f28	3.0097141
83	0x4000fff4	2.0156221
84	0x4021ef75	2.5302403
85	0x3ffb3ace	1.9627321
86	0x3fd75678	1.6823263
87	0x3f8d45ec	1.1036963
88	0x4005a4b3	2.0881774
89	0x3fd58363	1.6680721
90	0x3ff3b1b0	1.9038601
91	0x400788c4	2.1177225
92	0x3fb24278	1.3926535
93	0x3f775603	0.9661562
94	0x3fb959a0	1.4480476
95	0x3f910b59	1.1331588
96	0x3fab601d	1.3388706
97	0x401feed7	2.4989526
98	0x40825f0c	4.0741024
99	0x3fc2c1ac	1.5215354
100	0x3f9ddb38	1.2332525
101	0x4015761f	2.3353345
102	0x3f050dab	0.5197398
103	0x404cd875	3.2007115
104	0x3f54dde3	0.8315107
105	0x4024aefc	2.5731802
106	0x40283af5	2.6285985
107	0x3f7655a8	0.9622445
108	0x3f86d859	1.0534774
109	0x3fb6516a	1.4243596
110	0x3f97f77d	1.1872402
111	0x3fe9cbc0	1.8265305
112	0x3fa6b0c2	1.3022692
113	0x4035f4f1	2.843075
114	0x3ff4ff62	1.9140437
115	0x4029525d	2.645652
116	0x3f9735d0	1.1813297
117	0x3f4bb01d	0.795656
118	0x3fb2af0a	1.3959668
119	0x3fad2654	1.3527322
120	0x3f9faaa4	1.247395
121	0x4017b30a	2.3703027
122	0x400702c7	2.1095445
123	0x3fddfd6d	1.7342964
124	0x3ff06912	1.8782065
125	0x404ab67c	3.167388
126	0x3f69fc9b	0.9140107
127	0x3faedebe	1.3661726
